…
Namespace(active_random=0, batch_size=300, batch_size_test=10, dataset='omniglot', dataset_root='datasets', dec_lr=10000, decay_interval=10000, exp_name='omniglot_N5_S1_v2', iterations=1000, log_interval=20, lr=0.001, metric_network='gnn_iclr_nl', momentum=0.5, no_cuda=False, save_interval=300000, seed=1, test_N_shots=1, test_N_way=5, test_interval=2000, test_samples=30000, train_N_shots=1, train_N_way=5, unlabeled_extra=0)
Using CPU
Loading dataset
Num classes before rotations: 1200
Dataset Loaded
Num classes after rotations: 4800
All classes have 20 samples
Batch size: 300
Initiallize new Network Weights for enc_nn
Initiallize new Network Weights for metric_nn
omniglot
EmbeddingOmniglot(
  (conv1): Conv2d(1, 64, kernel_size=(3, 3), stride=(1, 1), padding=(1, 1), bias=False)
  (bn1): BatchNorm2d(64, eps=1e-05, momentum=0.1, affine=True, track_running_stats=True)
  (conv2): Conv2d(64, 64, kernel_size=(3, 3), stride=(1, 1), padding=(1, 1), bias=False)
  (bn2): BatchNorm2d(64, eps=1e-05, momentum=0.1, affine=True, track_running_stats=True)
  (conv3): Conv2d(64, 64, kernel_size=(3, 3), stride=(1, 1), bias=False)
  (bn3): BatchNorm2d(64, eps=1e-05, momentum=0.1, affine=True, track_running_stats=True)
  (conv4): Conv2d(64, 64, kernel_size=(3, 3), stride=(1, 1), bias=False)
  (bn4): BatchNorm2d(64, eps=1e-05, momentum=0.1, affine=True, track_running_stats=True)
  (fc_last): Linear(in_features=576, out_features=64, bias=False)
  (bn_last): BatchNorm1d(64, eps=1e-05, momentum=0.1, affine=True, track_running_stats=True)
)
MetricNN(
  (gnn_obj): GNN_nl_omniglot(
    (layer_w0): Wcompute(
      (conv2d_1): Conv2d(69, 138, kernel_size=(1, 1), stride=(1, 1))
      (bn_1): BatchNorm2d(138, eps=1e-05, momentum=0.1, affine=True, track_running_stats=True)
      (conv2d_2): Conv2d(138, 103, kernel_size=(1, 1), stride=(1, 1))
      (bn_2): BatchNorm2d(103, eps=1e-05, momentum=0.1, affine=True, track_running_stats=True)
      (conv2d_3): Conv2d(103, 69, kernel_size=(1, 1), stride=(1, 1))
      (bn_3): BatchNorm2d(69, eps=1e-05, momentum=0.1, affine=True, track_running_stats=True)
      (conv2d_4): Conv2d(69, 69, kernel_size=(1, 1), stride=(1, 1))
      (bn_4): BatchNorm2d(69, eps=1e-05, momentum=0.1, affine=True, track_running_stats=True)
      (conv2d_last): Conv2d(69, 1, kernel_size=(1, 1), stride=(1, 1))
    )
    (layer_l0): Gconv(
      (fc): Linear(in_features=138, out_features=48, bias=True)
      (bn): BatchNorm1d(48, eps=1e-05, momentum=0.1, affine=True, track_running_stats=True)
    )
    (layer_w1): Wcompute(
      (conv2d_1): Conv2d(117, 234, kernel_size=(1, 1), stride=(1, 1))
      (bn_1): BatchNorm2d(234, eps=1e-05, momentum=0.1, affine=True, track_running_stats=True)
      (conv2d_2): Conv2d(234, 175, kernel_size=(1, 1), stride=(1, 1))
      (bn_2): BatchNorm2d(175, eps=1e-05, momentum=0.1, affine=True, track_running_stats=True)
      (conv2d_3): Conv2d(175, 117, kernel_size=(1, 1), stride=(1, 1))
      (bn_3): BatchNorm2d(117, eps=1e-05, momentum=0.1, affine=True, track_running_stats=True)
      (conv2d_4): Conv2d(117, 117, kernel_size=(1, 1), stride=(1, 1))
      (bn_4): BatchNorm2d(117, eps=1e-05, momentum=0.1, affine=True, track_running_stats=True)
      (conv2d_last): Conv2d(117, 1, kernel_size=(1, 1), stride=(1, 1))
    )
    (layer_l1): Gconv(
      (fc): Linear(in_features=234, out_features=48, bias=True)
      (bn): BatchNorm1d(48, eps=1e-05, momentum=0.1, affine=True, track_running_stats=True)
    )
    (w_comp_last): Wcompute(
      (conv2d_1): Conv2d(165, 234, kernel_size=(1, 1), stride=(1, 1))
      (bn_1): BatchNorm2d(234, eps=1e-05, momentum=0.1, affine=True, track_running_stats=True)
      (dropout): Dropout(p=0.3, inplace=False)
      (conv2d_2): Conv2d(234, 175, kernel_size=(1, 1), stride=(1, 1))
      (bn_2): BatchNorm2d(175, eps=1e-05, momentum=0.1, affine=True, track_running_stats=True)
      (conv2d_3): Conv2d(175, 117, kernel_size=(1, 1), stride=(1, 1))
      (bn_3): BatchNorm2d(117, eps=1e-05, momentum=0.1, affine=True, track_running_stats=True)
      (conv2d_4): Conv2d(117, 117, kernel_size=(1, 1), stride=(1, 1))
      (bn_4): BatchNorm2d(117, eps=1e-05, momentum=0.1, affine=True, track_running_stats=True)
      (conv2d_last): Conv2d(117, 1, kernel_size=(1, 1), stride=(1, 1))
    )
    (layer_last): Gconv(
      (fc): Linear(in_features=330, out_features=5, bias=True)
      (bn): BatchNorm1d(5, eps=1e-05, momentum=0.1, affine=True, track_running_stats=True)
    )
  )
)
/home/ubuntu/few-shot-gnn/models/gnn_iclr.py:115: UserWarning: Implicit dimension choice for softmax has been deprecated. Change the call to include dim=X as an argument.
  W_new = F.softmax(W_new)
/home/ubuntu/anaconda3/envs/myenv/lib/python3.8/site-packages/torch/nn/functional.py:1960: UserWarning: nn.functional.sigmoid is deprecated. Use torch.sigmoid instead.
…
Counter 45000 from 60000
Counter 46000 from 60000
Counter 47000 from 60000
Counter 48000 from 60000
Counter 49000 from 60000
Counter 50000 from 60000
Counter 51000 from 60000
Counter 52000 from 60000
Counter 53000 from 60000
Counter 54000 from 60000
Counter 55000 from 60000
Counter 56000 from 60000
Counter 57000 from 60000
Counter 58000 from 60000
Counter 59000 from 60000
Counter 60000 from 60000
Images preprocessed
Loading dataset
Num classes 64
Num images 38400
Batch size: 100
Initiallize new Network Weights for enc_nn
Initiallize new Network Weights for metric_nn
mini_imagenet
EmbeddingImagenet(
  (conv1): Conv2d(3, 64, kernel_size=(3, 3), stride=(1, 1), padding=(1, 1), bias=False)
  (bn1): BatchNorm2d(64, eps=1e-05, momentum=0.1, affine=True, track_running_stats=True)
  (conv2): Conv2d(64, 96, kernel_size=(3, 3), stride=(1, 1), bias=False)
  (bn2): BatchNorm2d(96, eps=1e-05, momentum=0.1, affine=True, track_running_stats=True)
  (conv3): Conv2d(96, 128, kernel_size=(3, 3), stride=(1, 1), padding=(1, 1), bias=False)
  (bn3): BatchNorm2d(128, eps=1e-05, momentum=0.1, affine=True, track_running_stats=True)
  (drop_3): Dropout2d(p=0.4, inplace=False)
  (conv4): Conv2d(128, 256, kernel_size=(3, 3), stride=(1, 1), padding=(1, 1), bias=False)
  (bn4): BatchNorm2d(256, eps=1e-05, momentum=0.1, affine=True, track_running_stats=True)
  (drop_4): Dropout2d(p=0.5, inplace=False)
  (fc1): Linear(in_features=6400, out_features=128, bias=True)
  (bn_fc): BatchNorm1d(128, eps=1e-05, momentum=0.1, affine=True, track_running_stats=True)
)
MetricNN(
  (gnn_obj): GNN_nl(
    (layer_w0): Wcompute(
      (conv2d_1): Conv2d(133, 192, kernel_size=(1, 1), stride=(1, 1))
      (bn_1): BatchNorm2d(192, eps=1e-05, momentum=0.1, affine=True, track_running_stats=True)
      (conv2d_2): Conv2d(192, 192, kernel_size=(1, 1), stride=(1, 1))
      (bn_2): BatchNorm2d(192, eps=1e-05, momentum=0.1, affine=True, track_running_stats=True)
      (conv2d_3): Conv2d(192, 96, kernel_size=(1, 1), stride=(1, 1))
      (bn_3): BatchNorm2d(96, eps=1e-05, momentum=0.1, affine=True, track_running_stats=True)
      (conv2d_4): Conv2d(96, 96, kernel_size=(1, 1), stride=(1, 1))
      (bn_4): BatchNorm2d(96, eps=1e-05, momentum=0.1, affine=True, track_running_stats=True)
      (conv2d_last): Conv2d(96, 1, kernel_size=(1, 1), stride=(1, 1))
    )
    (layer_l0): Gconv(
      (fc): Linear(in_features=266, out_features=48, bias=True)
      (bn): BatchNorm1d(48, eps=1e-05, momentum=0.1, affine=True, track_running_stats=True)
    )
    (layer_w1): Wcompute(
      (conv2d_1): Conv2d(181, 192, kernel_size=(1, 1), stride=(1, 1))
      (bn_1): BatchNorm2d(192, eps=1e-05, momentum=0.1, affine=True, track_running_stats=True)
      (conv2d_2): Conv2d(192, 192, kernel_size=(1, 1), stride=(1, 1))
      (bn_2): BatchNorm2d(192, eps=1e-05, momentum=0.1, affine=True, track_running_stats=True)
      (conv2d_3): Conv2d(192, 96, kernel_size=(1, 1), stride=(1, 1))
      (bn_3): BatchNorm2d(96, eps=1e-05, momentum=0.1, affine=True, track_running_stats=True)
      (conv2d_4): Conv2d(96, 96, kernel_size=(1, 1), stride=(1, 1))
      (bn_4): BatchNorm2d(96, eps=1e-05, momentum=0.1, affine=True, track_running_stats=True)
      (conv2d_last): Conv2d(96, 1, kernel_size=(1, 1), stride=(1, 1))
    )
    (layer_l1): Gconv(
      (fc): Linear(in_features=362, out_features=48, bias=True)
      (bn): BatchNorm1d(48, eps=1e-05, momentum=0.1, affine=True, track_running_stats=True)
    )
    (w_comp_last): Wcompute(
      (conv2d_1): Conv2d(229, 192, kernel_size=(1, 1), stride=(1, 1))
      (bn_1): BatchNorm2d(192, eps=1e-05, momentum=0.1, affine=True, track_running_stats=True)
      (conv2d_2): Conv2d(192, 192, kernel_size=(1, 1), stride=(1, 1))
      (bn_2): BatchNorm2d(192, eps=1e-05, momentum=0.1, affine=True, track_running_stats=True)
      (conv2d_3): Conv2d(192, 96, kernel_size=(1, 1), stride=(1, 1))
      (bn_3): BatchNorm2d(96, eps=1e-05, momentum=0.1, affine=True, track_running_stats=True)
      (conv2d_4): Conv2d(96, 96, kernel_size=(1, 1), stride=(1, 1))
      (bn_4): BatchNorm2d(96, eps=1e-05, momentum=0.1, affine=True, track_running_stats=True)
      (conv2d_last): Conv2d(96, 1, kernel_size=(1, 1), stride=(1, 1))
    )
    (layer_last): Gconv(
      (fc): Linear(in_features=458, out_features=5, bias=True)
    )
  )
)
Weight decay 1e-06
/home/ubuntu/few-shot-gnn/models/gnn_iclr.py:115: UserWarning: Implicit dimension choice for softmax has been deprecated. Change the call to include dim=X as an argument.
  W_new = F.softmax(W_new)
/home/ubuntu/anaconda3/envs/myenv/lib/python3.8/site-packages/torch/nn/functional.py:1960: UserWarning: nn.functional.sigmoid is deprecated. Use torch.sigmoid instead.
…
