…
nlabeled_extra=0)
Using CPU
Namespace(active_random=0, batch_size=300, batch_size_test=10, dataset='omniglot', dataset_root='datasets', dec_lr=10000, decay_interval=10000, exp_name='omniglot_N5_S1_v2', iterations=100000, log_interval=20, lr=0.001, metric_network='gnn_iclr_nl', momentum=0.5, no_cuda=False, save_interval=300000, seed=1, test_N_shots=1, test_N_way=5, test_interval=2000, test_samples=30000, train_N_shots=1, train_N_way=5, unlabeled_extra=0)
Using CPU
Batch size: 300
Initiallize new Network Weights for enc_nn
Initiallize new Network Weights for metric_nn
EmbeddingOmniglot(
  (conv1): Conv2d(1, 64, kernel_size=(3, 3), stride=(1, 1), padding=(1, 1), bias=False)
  (bn1): BatchNorm2d(64, eps=1e-05, momentum=0.1, affine=True, track_running_stats=True)
  (conv2): Conv2d(64, 64, kernel_size=(3, 3), stride=(1, 1), padding=(1, 1), bias=False)
  (bn2): BatchNorm2d(64, eps=1e-05, momentum=0.1, affine=True, track_running_stats=True)
  (conv3): Conv2d(64, 64, kernel_size=(3, 3), stride=(1, 1), bias=False)
  (bn3): BatchNorm2d(64, eps=1e-05, momentum=0.1, affine=True, track_running_stats=True)
  (conv4): Conv2d(64, 64, kernel_size=(3, 3), stride=(1, 1), bias=False)
  (bn4): BatchNorm2d(64, eps=1e-05, momentum=0.1, affine=True, track_running_stats=True)
  (fc_last): Linear(in_features=576, out_features=64, bias=False)
  (bn_last): BatchNorm1d(64, eps=1e-05, momentum=0.1, affine=True, track_running_stats=True)
)
MetricNN(
  (gnn_obj): GNN_nl_omniglot(
    (layer_w0): Wcompute(
      (conv2d_1): Conv2d(69, 138, kernel_size=(1, 1), stride=(1, 1))
      (bn_1): BatchNorm2d(138, eps=1e-05, momentum=0.1, affine=True, track_running_stats=True)
      (conv2d_2): Conv2d(138, 103, kernel_size=(1, 1), stride=(1, 1))
      (bn_2): BatchNorm2d(103, eps=1e-05, momentum=0.1, affine=True, track_running_stats=True)
      (conv2d_3): Conv2d(103, 69, kernel_size=(1, 1), stride=(1, 1))
      (bn_3): BatchNorm2d(69, eps=1e-05, momentum=0.1, affine=True, track_running_stats=True)
      (conv2d_4): Conv2d(69, 69, kernel_size=(1, 1), stride=(1, 1))
      (bn_4): BatchNorm2d(69, eps=1e-05, momentum=0.1, affine=True, track_running_stats=True)
      (conv2d_last): Conv2d(69, 1, kernel_size=(1, 1), stride=(1, 1))
    )
    (layer_l0): Gconv(
      (fc): Linear(in_features=138, out_features=48, bias=True)
      (bn): BatchNorm1d(48, eps=1e-05, momentum=0.1, affine=True, track_running_stats=True)
    )
    (layer_w1): Wcompute(
      (conv2d_1): Conv2d(117, 234, kernel_size=(1, 1), stride=(1, 1))
      (bn_1): BatchNorm2d(234, eps=1e-05, momentum=0.1, affine=True, track_running_stats=True)
      (conv2d_2): Conv2d(234, 175, kernel_size=(1, 1), stride=(1, 1))
      (bn_2): BatchNorm2d(175, eps=1e-05, momentum=0.1, affine=True, track_running_stats=True)
      (conv2d_3): Conv2d(175, 117, kernel_size=(1, 1), stride=(1, 1))
      (bn_3): BatchNorm2d(117, eps=1e-05, momentum=0.1, affine=True, track_running_stats=True)
      (conv2d_4): Conv2d(117, 117, kernel_size=(1, 1), stride=(1, 1))
      (bn_4): BatchNorm2d(117, eps=1e-05, momentum=0.1, affine=True, track_running_stats=True)
      (conv2d_last): Conv2d(117, 1, kernel_size=(1, 1), stride=(1, 1))
    )
    (layer_l1): Gconv(
      (fc): Linear(in_features=234, out_features=48, bias=True)
      (bn): BatchNorm1d(48, eps=1e-05, momentum=0.1, affine=True, track_running_stats=True)
    )
    (w_comp_last): Wcompute(
      (conv2d_1): Conv2d(165, 234, kernel_size=(1, 1), stride=(1, 1))
      (bn_1): BatchNorm2d(234, eps=1e-05, momentum=0.1, affine=True, track_running_stats=True)
      (dropout): Dropout(p=0.3, inplace=False)
      (conv2d_2): Conv2d(234, 175, kernel_size=(1, 1), stride=(1, 1))
      (bn_2): BatchNorm2d(175, eps=1e-05, momentum=0.1, affine=True, track_running_stats=True)
      (conv2d_3): Conv2d(175, 117, kernel_size=(1, 1), stride=(1, 1))
      (bn_3): BatchNorm2d(117, eps=1e-05, momentum=0.1, affine=True, track_running_stats=True)
      (conv2d_4): Conv2d(117, 117, kernel_size=(1, 1), stride=(1, 1))
      (bn_4): BatchNorm2d(117, eps=1e-05, momentum=0.1, affine=True, track_running_stats=True)
      (conv2d_last): Conv2d(117, 1, kernel_size=(1, 1), stride=(1, 1))
    )
    (layer_last): Gconv(
      (fc): Linear(in_features=330, out_features=5, bias=True)
      (bn): BatchNorm1d(5, eps=1e-05, momentum=0.1, affine=True, track_running_stats=True)
    )
  )
)
Train Iter: 0	Loss_d_metric: 1.868760
Train Iter: 20	Loss_d_metric: 1.705248

**** TESTING WITH test ***
106 correct from 500 	Accuracy: 21.200%)
*** TEST FINISHED ***


**** TESTING WITH train ***
16 correct from 100 	Accuracy: 16.000%)
*** TEST FINISHED ***

Train Iter: 40	Loss_d_metric: 1.616619
Train Iter: 60	Loss_d_metric: 1.611090
…
